examples/2D_UKD_Heat/pennes_d50_1k_xy_best_model_hpm.pt (torch, 651965 bytes, 11 tensors)

heat_source_net.linear_layers.0.weight f4 [200, 2]
000000 0c b1 88 be c8 12 95 3b f3 b6 8e 3e b8 fd fa 3d
       -0.26697576 0.004549358 0.27873954 0.12255424
000010 cf 29 8d be a0 9c 1c be 10 25 61 3e 7e 4a af 3d
       -0.2757096 -0.15294123 0.21986794 0.0855913
000020 0d 74 6a 3e 24 22 22 be be 39 64 3e f0 d5 86 3e
       0.22895832 -0.15833336 0.22287652 0.26335096
000030 9a a8 87 3e 07 79 e7 3e 7c 5d b6 be cd 1c b0 3d
       0.2649582 0.45209524 -0.35618198 0.08599243
000040 46 a9 a2 bc da 9a 9b be 0c 49 23 be 40 03 c3 be
       -0.019856106 -0.3039158 -0.15945834 -0.38088417
000050 46 79 18 3e 6f ae 59 3e d1 37 2c 3e cb 7e 9e 3e
       0.14890012 0.21257947 0.16818167 0.3095611
000060 b3 27 0e 3e 68 1a ac bd 59 28 16 3e db d5 69 3e
       0.13882332 -0.08403474 0.14663829 0.22835486
000070 34 0d 4b be 55 d1 86 3e 2e 28 a1 3d 99 ed c7 be
       -0.19829255 0.26331583 0.07868992 -0.3904846
000080 a2 89 95 be 24 e4 eb 3d 70 26 44 be 2a 76 01 3b
       -0.29206568 0.11518124 -0.19155288 0.001975427
000090 12 eb 08 be 0b 12 ad be 22 57 a5 3d d5 41 ab 3e
       -0.13370922 -0.33802828 0.0807326 0.33448663
0000a0 85 2b ac 3e 31 1e 1b 3e da 09 83 3c b8 bd 00 3d
       0.33626953 0.15148236 0.015995909 0.03143093
0000b0 57 e4 a2 3e 3b f7 29 3d 24 65 5c be 2f 61 44 3e
       0.31814834 0.041495543 -0.21522957 0.19177698
0000c0 a8 29 f2 bd ff c4 c7 be 77 1d bc bd 73 85 33 3e
       -0.118243515 -0.39017484 -0.091853075 0.17531376
0000d0 bd 0d b2 3e 42 83 74 bd 7b f8 29 be 17 88 a0 be
       0.34776106 -0.05969549 -0.16598694 -0.31353828
0000e0 0d 59 38 3e 5a b2 03 3d 21 3e 99 be e6 be 50 be
       0.1800272 0.03215251 -0.29930213 -0.20385322
0000f0 60 50 34 be a9 c4 d0 3d 92 76 9f be ad 8d 25 3e
       -0.17608786 0.1019376 -0.3114515 0.16167326
000100 e0 69 aa 3e 61 9b 08 3d 9d 13 bc be 67 09 ca bd
       0.332839 0.033351306 -0.36733714 -0.098650746
000110 38 c1 99 bd 8c aa a7 be 28 31 cc be dc 3e 17 bd
       -0.07507557 -0.32747304 -0.39881253 -0.03692518
000120 1e 1b 8f 3c 42 e8 7b be d0 be 9d 3e 4f 4d 7a be
       0.017468985 -0.24600318 0.3080964 -0.24443553
000130 d8 64 5b be bd 04 b0 3d b0 b1 3f 3e 60 2e 86 3e
       -0.21425188 0.08594654 0.18720126 0.26207256
000140 69 50 45 3d a9 fa 6c be ee f5 b0 3e 9c e3 8d 3e
       0.04817239 -0.23142494 0.3456263 0.27712715
000150 1d e9 7f be 52 7e 5a 3d 0d 9c a9 bd d7 6c a1 be
       -0.2499127 0.053343125 -0.082817174 -0.3152835
000160 8d 65 ed bd 20 7c 93 3e cf db 38 3e 38 73 42 be
       -0.11591635 0.28805637 0.180526 -0.18989265
000170 15 b2 ad be 01 cd 71 3d 72 dc be be 7f 40 1c be
       -0.33924928 0.059033398 -0.3727756 -0.15258978
000180 ea d3 15 3e e0 07 77 3e d5 53 ff 3d 31 a8 54 3e
       0.1463162 0.24124098 0.124671616 0.20767285
000190 76 ce 4c be 34 a8 b2 3e dc 11 a7 be 17 ae c1 3d
       -0.20000634 0.34893954 -0.32630813 0.09457033
0001a0 40 a4 83 3e bf ed 0c 3e 6b b1 c4 bd 6b 3f 9f be
       0.2571125 0.13762568 -0.09604152 -0.31103072
0001b0 71 17 9a 3e 89 d6 55 be 4f c3 a0 be c1 f3 d2 3d
       0.3009601 -0.2088262 -0.3139901 0.103003986
0001c0 db 34 f4 bd 31 de 5d 3e fd aa dd bd 48 1b 17 be
       -0.11924144 0.2166679 -0.10823629 -0.147565
0001d0 de 54 a8 be af c4 87 3d 15 c0 eb 3e ab 32 ad 3c
       -0.3287725 0.06629311 0.46044984 0.021142324
0001e0 d0 b1 02 3e df 75 b2 3c 10 7d 9c 3e 66 0e e7 3d
       0.12763143 0.021784721 0.30564165 0.11282043
0001f0 56 2a 8b be 98 64 46 3e 8d 93 54 3e e1 a5 f2 bb
       -0.27180737 0.19374311 0.20759411 -0.007405028
000200 ed 8f 4c be 69 e2 09 3e 53 23 9f be 16 5c 41 be
       -0.19976778 0.13465275 -0.31081638 -0.18882784
000210 e3 65 91 3e 55 95 79 be bf 75 6f be 8b c2 5f be
       0.28398046 -0.24373372 -0.2338476 -0.21851556
000220 49 3d ce 3d 6b a9 8f be f3 a1 ae 3e e4 2a 35 bc
       0.10070283 -0.28058943 0.34107932 -0.011057589
000230 b5 6c 76 be e4 7c 51 3e d4 fe 88 3e 51 13 c3 3e
       -0.24064906 0.20457798 0.26756918 0.38100675
000240 e6 7c 06 3d 7d d1 8a be 6d 79 65 3e 35 0d 6b be
       0.032833956 -0.27112952 0.22409602 -0.22954257
000250 28 c6 bb 3c 7a 3c 0b 3e 9c f1 1a be 86 40 41 be
       0.022921637 0.13597289 -0.15131229 -0.1887227
000260 bf 29 24 be 01 60 1e be e8 a0 37 bc f9 3c 49 be
       -0.1603155 -0.1546631 -0.011207797 -0.19652165
000270 27 f2 b9 be 7f 02 94 bd 05 da dc 3d 8a 31 9e 3e
       -0.3631756 -0.072270386 0.107837714 0.3089717
000280 42 41 ab be 59 87 09 be 96 c9 0b be 8f ad 9f 3e
       -0.33448225 -0.13430537 -0.13651118 0.31187102
000290 d3 38 7c bd 9b 18 17 3e 1b 68 41 3b 24 cb a3 3c
       -0.06157763 0.1475548 0.0029511515 0.019994326
0002a0 7a 40 c2 be 36 c7 13 3e 35 7b 83 be af 06 b3 3d
       -0.37939817 0.14431462 -0.25679937 0.08741509
0002b0 49 81 7f 3d 53 f3 c1 3d 28 70 88 bd ca 0c b5 be
       0.062379155 0.094702385 -0.06662017 -0.3536132
0002c0 4d e7 ab be d9 37 22 bd a5 e2 3c bd 24 90 84 be
       -0.33574906 -0.03960404 -0.046114583 -0.2589122
0002d0 1e 74 66 be 66 3a 61 3e 8a 38 8c be bb 90 54 be
       -0.22505233 0.21994933 -0.27386886 -0.20758335
0002e0 78 05 04 3e dc da 96 be 9c d5 e4 3e 43 41 1f be
       0.12892711 -0.2946385 0.4469422 -0.15552239
0002f0 95 76 3d be 61 b8 ec 3d e9 e7 d7 be 0d 04 3b 3e
       -0.18502267 0.11558605 -0.4216912 0.18263264
000300 11 98 78 be 3d f4 22 bd 8a ce 90 be dd ee db 3d
       -0.24276759 -0.039783705 -0.28282577 0.10738919
000310 9f 8f 93 bd f4 1a a1 3e 06 cd d1 3d 76 06 c8 be
       -0.07205128 0.31465876 0.10244183 -0.3906743
000320 94 b6 42 be 71 4e 93 3e 46 85 b8 bc 2f 47 dd 3e
       -0.1901496 0.28770784 -0.022524487 0.4321837
000330 1e 57 b8 3e 7f 4a 34 3e 87 c3 ec bd 23 c5 d1 3d
       0.36003965 0.17606543 -0.115607314 0.10242679
000340 07 e9 11 bd b8 43 8b be 44 b1 d1 bd c8 11 d1 3e
       -0.035622623 -0.27200103 -0.10238889 0.4083388
000350 f7 fe 02 be aa 7f 9b be 5a 5e 75 be 66 a3 6a be
       -0.12792574 -0.30370837 -0.23961774 -0.22913894
000360 83 62 63 be dc 4e 90 be 59 16 77 bd 06 f7 9c 3e
       -0.22205548 -0.28185165 -0.060324047 0.30657214
000370 9c 2a 88 be 1f 60 b4 3d 77 6c 95 3e eb f7 30 b8
       -0.26595008 0.08807396 0.29184315 -4.219256e-05
000380 e5 82 8f 3c ff d4 94 be a5 af 76 3e e0 8b 66 be
       0.01751847 -0.29068753 0.2409044 -0.22514296
000390 e4 5f 41 3e 52 f9 73 be ad 06 70 3e 1c e9 d1 3d
       0.18884236 -0.23825577 0.23440047 0.1024954
0003a0 11 f0 7f be 7b 1f a6 bd cf 81 01 bf 47 5f dc 3d
       -0.24993922 -0.08111473 -0.505887 0.1076036
0003b0 4e 59 63 be fe ce 77 3e a0 42 f2 bd 41 a1 9e 3d
       -0.22202036 0.24200055 -0.11829114 0.077456005
0003c0 1d 08 2f be 6a b1 88 3d b9 e9 bf bd f6 83 d5 3e
       -0.17092939 0.06674464 -0.09370751 0.4170224
0003d0 c4 66 c8 be 8c 85 b9 3d a0 63 05 3e dc d0 4c bb
       -0.39140904 0.09058675 0.13026285 -0.003125242
0003e0 81 72 4f 3e cb 0a 71 3e 88 65 aa 3d 78 1e b1 3e
       0.20258524 0.23539273 0.08320147 0.34593558
0003f0 b9 c8 7c 3e 5f a8 b7 3e 2f 55 4e be 69 57 88 3d
       0.24685945 0.35870644 -0.20149682 0.06657297

heat_source_net.linear_layers.0.bias f4 [200]
000000 be 01 05 3e df 92 10 3e 12 7a 18 3e 57 f0 13 3e
       0.12988946 0.14118527 0.14890316 0.14447151
000010 fe be 5c bd 35 c2 fb 3d 29 47 c2 bd 2b 46 2a 3c
       -0.05389308 0.122929014 -0.09486229 0.010392706
000020 55 c5 1c 3e 2b 50 8e 3d b1 79 43 3e d6 61 92 bd
       0.15309651 0.069488846 0.1908939 -0.07147567
000030 5d 18 04 3e 92 19 e5 bd a5 af 97 bd 5e 8a a2 3c
       0.12899919 -0.11186518 -0.074065484 0.01984137
000040 15 28 6a 3c 08 53 d2 bd 67 e2 89 bb cc c3 af 3d
       0.014291783 -0.10269743 -0.0042078975 0.08582267
000050 7f 73 b1 bd b0 b5 3a 3e 27 e6 b9 39 e3 c3 a1 3c
       -0.08664607 0.18233371 0.00035457427 0.019746726
000060 da e9 48 3d 9f 65 fd bd 6d 8e 91 bd de 5c 8c bd
       0.049051143 -0.12372898 -0.07107244 -0.068536505
000070 dd 90 24 3e 28 61 b0 3d d3 03 05 3e ee 49 23 bd
       0.16070886 0.08612281 0.1298974 -0.039865427
000080 8b 73 90 bd 69 c4 23 ba e0 85 28 be f8 2a 17 3c
       -0.07053288 -0.0006247224 -0.1645732 0.009226553
000090 46 09 ea 3d 75 30 c7 39 be 25 c9 3d f8 d7 06 3e
       0.1142755 0.0003799234 0.09821652 0.13168323
0000a0 8c 2f ad 3d 86 ac 27 be 66 5d 0e 3e 0a 18 24 be
       0.084563345 -0.16374406 0.13902816 -0.16024795
0000b0 ac df e8 3c 0d 69 4c 3d 3b 3b c5 bd e8 aa f1 3d
       0.028426968 0.04990487 -0.09630438 0.11800176
0000c0 4b 7f 42 bd 21 e7 05 be a5 73 25 3d ca e1 20 3e
       -0.047484677 -0.1307645 0.04039349 0.15711132
0000d0 d0 0e 8f 3d 3c 58 aa 3d 8b d2 2a 3d d2 cd d5 bc
       0.06985247 0.083176106 0.041704696 -0.02609912
0000e0 9f c9 9d bd ab ca 0a be e7 35 f6 3b 84 ca 14 be
       -0.07704472 -0.13553874 0.00751375 -0.14530379
0000f0 79 64 57 be 36 b5 f5 3d 46 ea 31 3d 95 d2 b5 bd
       -0.21034421 0.11997454 0.04343631 -0.08878056
000100 9e a1 e4 bd 46 41 b6 3d 60 ae 6f 3c 65 c3 48 3d
       -0.111636385 0.08899169 0.014628977 0.049014468
000110 16 58 d8 3d 55 65 1a 3d 23 7b a5 3d d0 85 88 bc
       0.10563676 0.037694294 0.08080127 -0.01666537
000120 e3 bb 39 bd f7 c7 3b be 75 6f 09 be c5 7d ae bd
       -0.0453452 -0.18338 -0.13421424 -0.085200824
000130 df 59 40 3e 81 3a 15 3e 02 93 13 3e 9c 2d 10 be
       0.18784283 0.14573099 0.14411548 -0.14079899
000140 bf 8a 07 be 5c b6 31 bd 51 07 2c 3e 19 7c 34 3e
       -0.13236521 -0.043386802 0.16799666 0.17625464
000150 06 69 51 3d 57 8c 97 bd 44 19 28 be 26 62 b4 3b
       0.05112555 -0.073998146 -0.16415888 0.0055048643
000160 31 b9 e4 bc 2b 0a 1f 3e cf 80 66 3e 13 26 05 be
       -0.027920337 0.15531223 0.22510074 -0.13002805
000170 1a a5 d1 3d 57 1a 18 3a 57 c6 1f be 10 43 70 3b
       0.10236569 0.0005802265 -0.15603004 0.0036661066
000180 ea 93 d0 3d 90 63 7e bd 9a e9 12 3e 0e a3 38 bd
       0.10184462 -0.06210667 0.14346924 -0.045077376
000190 0a d3 ca 3b 60 68 0b 3d 2d 30 19 3d 11 23 21 be
       0.0061897086 0.034035087 0.03739946 -0.15736033
0001a0 c2 fc 27 be 27 6d 69 bd da 79 13 bc eb 9a ae 3d
       -0.16405013 -0.05698886 -0.00900122 0.08525642
0001b0 0c 91 c9 3d 46 04 6f 3a 4b 06 59 bd 7d 76 30 be
       0.098421186 0.0009117763 -0.052984517 -0.172327
0001c0 97 b5 e0 3d 98 59 0f be 6b e1 04 3e 76 f3 bf 3d
       0.109721355 -0.13999021 0.12976615 0.09372608
0001d0 2b c8 da bd e3 a2 f6 3d 2a 72 85 3d 8e 81 f5 bd
       -0.1068271 0.12042787 0.06515916 -0.11987601
0001e0 a7 32 0a be 4f 72 5e 3d 81 90 1f bc 5d 14 f4 3d
       -0.13495885 0.054308232 -0.009739042 0.119179465
0001f0 bb 1f 9f 3d 72 14 24 bd 93 c2 dc 3d 5e d7 aa bd
       0.07769724 -0.04005856 0.107792996 -0.08341859
000200 1f 02 10 3e 84 b8 fc bc 70 d4 40 be d6 d4 44 3e
       0.14063309 -0.030849703 -0.18831038 0.19221815
000210 ad 30 96 3d 67 ec 4e be 00 7a 0d be 50 d0 c5 3d
       0.07333503 -0.20207368 -0.1381607 0.09658873
000220 ff 05 1a bd b7 06 aa bd 22 c4 36 be ea b5 05 bd
       -0.037603375 -0.08302062 -0.17848256 -0.03264419
000230 50 e9 3a 3e 0a f7 3d 3e b8 be a8 bc ec f4 e0 3c
       0.18253064 0.18551269 -0.020598754 0.027460538
000240 c4 30 06 3e 96 a9 af bc 0a af 14 be 7b 57 00 be
       0.1310454 -0.02144317 -0.14519897 -0.12533371
000250 27 36 83 bd 60 60 69 bc 76 f9 01 3e bf 6c 1a 3e
       -0.06406813 -0.014244169 0.12692818 0.15080546
000260 27 93 5c 3d 1b b1 03 3e 8c d1 96 3d b8 1f bb 3d
       0.053851273 0.12860529 0.07364187 0.09136909
000270 4d 73 6a 3e 93 15 a4 bd 54 61 05 bd b4 05 d6 bd
       0.22895546 -0.080119275 -0.032563522 -0.104503065
000280 a0 fc 2d 3e 75 a3 aa bd fb e0 2b bd 84 39 70 3b
       0.169909 -0.08331958 -0.041962605 0.0036655376
000290 71 11 85 bd 77 56 bb 3d e0 c6 18 3e 27 1d e1 3d
       -0.06497467 0.09147351 0.14919615 0.109918885
0002a0 cb 13 44 3e 70 b0 0c 3e c9 23 33 3e 3f 90 ee bc
       0.19148175 0.1373918 0.1749412 -0.029121516
0002b0 e2 71 3c be 23 c6 be 3d 7e 88 36 be 83 c2 92 3d
       -0.18402818 0.09315135 -0.17825505 0.071660064
0002c0 4d 06 39 be 1f 18 55 bd 0e 88 8d bd d6 9b 92 bc
       -0.1806881 -0.052024957 -0.06910716 -0.017896574
0002d0 60 48 03 3e 22 5d bf bd bf 8b 04 3e 8f 17 57 be
       0.12820578 -0.093439355 0.12943934 -0.2100508
0002e0 63 35 f8 bc a5 49 c9 bd 8c 51 49 be 9d 0f 18 be
       -0.030298894 -0.098285 -0.19660014 -0.14849706
0002f0 a5 49 a6 3c 97 7f e2 bd 1f 51 25 3e da af 8f 3c
       0.020298788 -0.11059492 0.16144226 0.017539907
000300 d7 9f 16 bd 71 95 2e be e8 b5 cc bd b8 2d b8 3d
       -0.03677353 -0.17049195 -0.09995633 0.08993095
000310 9c be f8 bd 1b ba 32 3e 1e 50 a2 3d 92 8c f2 bd
       -0.12145731 0.17453806 0.079254374 -0.11843218

heat_source_net.linear_layers.1.weight f4 [200, 200]
000000 93 91 70 3d cf 6e 15 bd 1b bf 08 3e 90 b1 10 be
       0.05873258 -0.03648263 0.13354151 -0.14130235
000010 e1 01 63 be 4a 2f 32 be 88 2d c4 bc fa 47 12 3e
       -0.22168685 -0.17400852 -0.023947492 0.1428527
000020 a3 17 f1 bd ba fe 7b bd 2e ab f9 bd af ea fc 3d
       -0.117720865 -0.061522223 -0.12190853 0.1234945
000030 cc 62 40 be dd 6a f3 3c 95 b1 ff 3d 65 88 12 bd
       -0.18787688 0.029714042 0.12485043 -0.035774607
000040 b9 87 7a 3d 17 df 87 3e 50 d5 8e bc f6 ce da bd
       0.06116459 0.26537392 -0.0174357 -0.10684006
000050 a6 b0 40 3c ed 5f af bd 68 f3 17 be 10 08 03 3d
       0.011760866 -0.08563218 -0.14838946 0.03199011
000060 cd 15 7e 3c 66 db e0 3d 67 d2 03 3c 08 c7 a3 3d
       0.015508127 0.10979347 0.008045769 0.079969466
000070 23 49 de bd 9a c6 47 bd 49 b2 5e 3d ad 36 28 3e
       -0.108537935 -0.048773386 0.054369245 0.16427107
000080 59 f2 f4 3c 40 76 5e 3d 9a ab 21 3e 8c 1c 61 3b
       0.029900717 0.05431199 0.15788117 0.003434929
000090 4b ee 09 be 40 6d 0d be 21 b5 0c 3d 0d 41 90 bd
       -0.13469808 -0.13811207 0.034352425 -0.070436575
0000a0 7b ce 74 be 4d 76 5c 3d 6a dd 1a bc f9 4f 3c bd
       -0.23906891 0.053823758 -0.009452203 -0.045974705
0000b0 d8 c1 b5 bd 9f 8e 4f bd ae 1b 9b 3e df d3 ec b9
       -0.088748634 -0.050673123 0.30294555 -0.00045171284
0000c0 f0 9a bf bd ab 79 69 3c 70 43 14 3e 70 f4 9d bc
       -0.09355724 0.014250199 0.1447885 -0.019281596
0000d0 61 8a b2 bd 49 a7 91 3b 2c d6 fe 3d cf cd dd 3d
       -0.087178 0.004444991 0.12443194 0.108302705
0000e0 ba 29 21 3e 03 1f 00 3e 87 59 5c 3d 52 b9 66 3d
       0.15738574 0.1251183 0.053796317 0.05632908
0000f0 0f d6 14 3d ce 91 41 bd d3 63 c0 bb f0 24 29 bd
       0.036336955 -0.04725819 -0.005871275 -0.041294992
000100 34 9c 9b 3e f4 fb 41 3d 0f f5 bc bd 85 6e a1 3c
       0.3039261 0.04735942 -0.09226429 0.01970602
000110 5f 98 62 be 2b ce 5a be 27 96 1c 3e 9e 1b 86 3d
       -0.22128437 -0.2136771 0.15291654 0.06548236
000120 10 bd 62 bd d3 97 17 3d 11 ab 0a 3e b6 8f 4d 3e
       -0.055356085 0.037010025 0.13541819 0.20074353
000130 8b c5 7a bd a1 77 a1 bd bb 7a a0 bb 47 d2 eb 3c
       -0.061223548 -0.078841455 -0.004897443 0.028786791
000140 1d c5 8b 3e 38 cb 7c 3d c9 d2 13 3c 10 64 35 bd
       0.27298823 0.061717242 0.009022423 -0.04428488
000150 d6 ad 86 3d 3f 18 f4 3d 6e a4 a5 3d a6 32 d0 3d
       0.06576125 0.11918687 0.08088003 0.101659104
000160 23 29 12 3e 02 4c 49 bd 24 07 3e 3d d4 ae 62 3e
       0.14273505 -0.049144752 0.04639353 0.22137004
000170 bb df 8e be f7 67 97 bd 66 a4 69 3e b5 2f ab 3d
       -0.27905068 -0.073928766 0.2281662 0.08358709
000180 bf 66 60 3d 2c a5 4c 3e ff 72 fb bd 5e 8b c1 bd
       0.054785486 0.19984883 -0.12277793 -0.0945041
000190 cf 8f b7 3c 99 94 90 3d d3 17 29 be e3 da 69 3e
       0.02240744 0.07059593 -0.16512994 0.22837405
0001a0 92 8a d4 3c 7d 8d 9e 3c 27 76 1a 3e ba 61 c4 3d
       0.025944982 0.019354576 0.15084134 0.09588952
0001b0 f7 d3 fa 3d 52 8e be bd a6 89 55 3e 07 06 85 bd
       0.1224746 -0.09304489 0.2085329 -0.0649529
0001c0 70 6e 0f bd 1e 44 27 bd 72 4a 25 be be 6d ef bd
       -0.03501743 -0.040836446 -0.1614168 -0.116908535
0001d0 0f 36 1b 3e fa c8 01 3c f0 a3 c6 bc 53 57 c3 3d
       0.1515734 0.007921452 -0.024248093 0.0953814
0001e0 10 61 48 3e dd 0c 8e bc db 5a 7a 3d 86 b6 c1 bd
       0.19568276 -0.017340118 0.061121803 -0.09458642
0001f0 2b f7 96 bd 16 d8 1e 3d 9d c6 5c be 89 57 82 3e
       -0.07371362 0.038780294 -0.2156014 0.2545741
000200 ec f2 b3 3d 18 5d 45 3b 82 66 49 bb f0 d7 0d bd
       0.08786568 0.0030115303 -0.0030731265 -0.034629762
000210 19 5f 5f be 16 e7 86 3d aa 31 66 3e 10 9e 5e be
       -0.2181362 0.06587045 0.22479883 -0.21739984
000220 83 d3 da 3c 02 fa b8 bc c6 ea 2e 3e 98 c7 90 3d
       0.026712185 -0.02258015 0.17081746 0.070693195
000230 02 06 95 3d 2e 72 1e be ce 0a 31 3e f9 88 9c bc
       0.072765365 -0.15473244 0.17289278 -0.019108282
000240 74 6c 90 3d 48 11 c0 3d 58 aa a2 3e 20 f8 97 bc
       0.07051936 0.09378296 0.31770587 -0.018550932
000250 01 18 90 bd 78 ba a3 bc ba b5 4b 3d f8 b7 39 bd
       -0.070358284 -0.019986376 0.049733855 -0.045341462
000260 e0 fb bd 3d 3a 23 79 bc f4 14 c7 be d5 1f b7 bc
       0.09276557 -0.015206153 -0.38883173 -0.022354046
000270 b9 49 12 be 92 5e aa 3d 64 94 40 3d cb 14 98 3e
       -0.14285935 0.08318819 0.047016516 0.29703364
000280 32 a8 24 be 88 77 c9 3c 15 55 e5 3c 7b 63 15 be
       -0.16079786 0.02459313 0.027994672 -0.1458873
000290 30 90 66 3e 9d 9d 69 be 51 01 d4 bd 88 b4 81 be
       0.2251594 -0.22814031 -0.103518136 -0.25333047
0002a0 bf df 15 bd 1a de 96 bd ea e6 11 be b1 82 75 3e
       -0.036590334 -0.07366581 -0.14248243 0.23975636
0002b0 6f 6c 6c 3d 3e d7 69 be 0f b9 7f 3d 0c dc 47 be
       0.057720598 -0.22836015 0.062432345 -0.19517535
0002c0 a5 10 a3 3c 6e f9 9c bd b9 02 d4 3d b6 12 25 be
       0.019905398 -0.076647624 0.10352082 -0.16120419
0002d0 70 4e 7f bd 69 55 09 3d 5f e9 17 be 00 2b 46 3d
       -0.062330663 0.03352872 -0.14835118 0.04838085
0002e0 e2 f2 c9 bc 8e a5 68 3e a4 98 07 be 1a 3b 72 bd
       -0.024651948 0.22719404 -0.13241822 -0.059138395
0002f0 77 49 ec bc 9a ce 22 be b4 43 11 be 3d b1 49 bd
       -0.028843625 -0.15899125 -0.14185983 -0.049241293
000300 b3 b5 e2 3c 40 bc 12 bd 2f fe a2 3d dd 51 47 be
       0.027674532 -0.03582406 0.07958638 -0.19464822
000310 38 82 2c 3e 8f 28 b7 bc 86 ab 2c 3d b8 88 82 3d
       0.1684655 -0.022358207 0.042155765 0.06373733
000320 d3 fd 8c be 5b 3b bf bd 7c 75 a4 be 95 46 0b bd
       -0.27537403 -0.09337493 -0.32120883 -0.03400286
000330 b5 a1 80 3d 00 12 00 bd 8b be 3d 3e 7c 80 83 bd
       0.06280843 -0.031267166 0.18529718 -0.06420991
000340 ae 50 32 be 60 cb d4 bd 49 6c 8b bd e3 c1 d7 3d
       -0.1741359 -0.10390353 -0.06807763 0.10535028
000350 42 ee 26 be d8 e7 64 3e 50 1a 23 bd 16 33 a2 3d
       -0.16301826 0.22354066 -0.039820015 0.079199
000360 65 d4 c4 bd 3f f1 be 3c 36 8f 3a 3b 8d 10 b1 bd
       -0.096108235 0.023308394 0.0028466708 -0.08645735
000370 c9 9d 19 3e ab b7 5d be a0 07 16 3e 8c 80 d2 bd
       0.15001597 -0.21652095 0.14651346 -0.102784246
000380 e4 21 38 3d 69 d3 8a 3c 90 43 78 3e 7d 96 ca bd
       0.044954196 0.016946511 0.24244523 -0.098919846
000390 38 2d 6b bd 05 52 22 be 3e 61 ef be 48 7e 1c bb
       -0.05741617 -0.158516 -0.46753877 -0.002387898
0003a0 81 25 ce 3d 26 4c e6 bd 02 b4 de 3d 56 93 5a be
       0.10065747 -0.11244993 0.108741775 -0.21345267
0003b0 47 67 ed bd 52 74 12 3d 53 c1 b4 be 35 eb 48 be
       -0.11591964 0.035755463 -0.35303745 -0.19620974
0003c0 13 63 e0 3c 94 c1 ab 3d 35 37 cf be 28 3e 48 bd
       0.027390992 0.083865315 -0.40471807 -0.0488874
0003d0 b9 4e f9 3c 06 75 13 3e 2c 2d 39 3c d3 ce a9 be
       0.030433046 0.1440011 0.011302274 -0.33165607
0003e0 9d 48 08 3e ad 9c 5e 3e 5e 52 73 be db 56 67 be
       0.1330895 0.21739455 -0.2376189 -0.22591726
0003f0 97 f3 8e bb 31 fa 3a be 9d 13 3a 3d 1c 8a 21 3b
       -0.0043625343 -0.18259503 0.04542886 0.002464897

heat_source_net.linear_layers.1.bias f4 [200]
000000 60 f2 62 bd b3 11 44 be 7e 0a 26 bc b5 0b a7 bd
       -0.055406928 -0.19147377 -0.0101343375 -0.0815653
000010 cc 15 0c 3d 91 71 c5 3d cf e0 79 bd e9 96 c6 3d
       0.034200475 0.09640802 -0.06100541 0.096967526
000020 dd 4b 9f bd 16 aa cc 3d 24 81 09 bc 67 b1 79 bd
       -0.07778142 0.09993379 -0.008392606 -0.0609602
000030 e8 91 d5 3c b8 5e 83 bd 6f 4e a2 3d 6a 6d 48 bc
       0.02607055 -0.064145505 0.07925116 -0.012233118
000040 92 a8 1c 3e a4 13 01 be cb d6 07 be f0 fb d6 3d
       0.1529868 -0.12605149 -0.13265531 0.10497272
000050 5d 9b 8c bd 77 ab 4d bd 8f 05 27 3e 8d 82 01 3e
       -0.06865571 -0.05021235 0.16310714 0.12647457
000060 5c 28 81 3d ea 40 16 be 62 f5 06 3e 11 bd 01 3e
       0.06306526 -0.146732 0.13179544 0.1266978
000070 7a 7b df ba 64 b1 26 3c 46 74 2d 3d b0 6e 74 3e
       -0.0017050349 0.010174129 0.042347215 0.23870349
000080 bc 0f 04 3c 15 12 8f bd de f1 ed 3d ba 81 ae 3d
       0.008060392 -0.06985871 0.11618398 0.08520837
000090 09 ff a7 3d 4c cf 45 3d 83 41 12 bd ba 59 0f bc
       0.08202941 0.048293397 -0.035707008 -0.00874942
0000a0 76 1b 7a bd 7c 9e 35 3e 56 0a f4 3d ae a7 41 3c
       -0.061061345 0.17736238 0.11916034 0.011819763
0000b0 2a dc 2d 39 17 88 30 be 3d 61 17 3d d5 b5 1c be
       0.00016580583 -0.17239414 0.036957968 -0.15303738
0000c0 32 5b 03 bd f2 64 32 be bc b1 d9 bd fa 91 89 bd
       -0.032069393 -0.1742132 -0.10629603 -0.06717296
0000d0 e7 93 fe 3d 44 e4 1f 3e 8d 7b b5 3d fa d6 0b be
       0.12430554 0.1561442 0.08861456 -0.13656226
0000e0 54 b6 59 3d a2 f8 8a bc c6 72 8d bd 2b af a8 3d
       0.053152397 -0.01696426 -0.06906657 0.08236536
0000f0 25 58 96 bd d3 d8 12 3d 99 d0 7b bd 2f 15 70 3c
       -0.07341031 0.03585131 -0.06147823 0.014653488
000100 2e 3a 0a be a7 16 c6 bc 07 78 0f bd a8 64 a3 3d
       -0.13498756 -0.024180723 -0.035026576 0.07978183
000110 e4 9b 49 3b 4e a3 6d bd 0d d1 17 3d 6f 6e be bd
       0.0030763084 -0.058017068 0.0370646 -0.09298407
000120 a1 12 43 be af f5 47 be 66 97 f0 bc 01 c9 64 3d
       -0.19050075 -0.19527315 -0.029369067 0.055855755
000130 2f 8b 3c bd b8 dc e6 3c c9 d4 0c 3e 53 a9 ab 3c
       -0.046031173 0.028181419 0.13753046 0.020954764
000140 f7 ad 60 3c fa 4b 42 be 30 25 af bc 33 7d 09 be
       0.013713351 -0.18974295 -0.021380037 -0.13426666
000150 25 8d f1 3d eb 28 ba bd ba ee be bd e0 b7 21 be
       0.11794499 -0.09089836 -0.09322877 -0.15792799
000160 97 28 aa bd 63 b9 44 3c 2e 14 8f bc 25 5b dd bd
       -0.08308523 0.01200709 -0.017465677 -0.108084
000170 ed 09 a9 3d c2 d5 68 3d 2b f4 a3 3d 2f d3 8d 3d
       0.08253846 0.05684448 0.08005556 0.06925046
000180 49 84 36 3d 17 2e 17 3e 68 d9 c1 3d 95 3b 9b 3d
       0.04455975 0.14763676 0.09465295 0.07579724
000190 14 5a 2e bc a2 ac fa 3d 9e d4 d2 bd 77 7e 83 3d
       -0.0106415935 0.12239958 -0.1029446 0.06420606
0001a0 eb 7e b5 bd d8 a5 1d be cb f5 bd bd 6f e4 16 be
       -0.08862098 -0.15395296 -0.09275397 -0.14735578
0001b0 81 76 b4 3d 1a 5e 66 bd ae 96 49 3d a1 5c 39 bd
       0.08811665 -0.056242086 0.049215965 -0.045254353
0001c0 a5 e9 0f 3e ae cc a2 bd a0 71 8d bd 21 29 1f be
       0.14053972 -0.07949196 -0.06906438 -0.15543033
0001d0 d9 66 cb bd 62 2f c4 bc 49 e6 5a 3d 74 8b 47 bd
       -0.09931726 -0.023948375 0.053442273 -0.048716977
0001e0 2f b9 5e bc 4e 0e 04 be dd 0c 2f 3d eb e9 28 3e
       -0.013593956 -0.12896082 0.042736877 0.16495483
0001f0 99 8d 5b bd ff 19 11 bd 80 48 4b 3e eb d7 5d 3d
       -0.053601835 -0.035425182 0.19851875 0.054160994
000200 66 3c 78 bd f9 93 e8 3d e0 99 d5 bd 19 93 ec bd
       -0.060604475 0.113563485 -0.1042974 -0.11551494
000210 b8 cc 95 3d 36 3e cb 3b 91 38 99 3d 71 bb 8f 3d
       0.07314438 0.0062024845 0.07481492 0.070181735
000220 0c 67 9e bc a3 36 4c 3d 4a 21 d8 bd 35 75 c5 3d
       -0.019336246 0.049856793 -0.105532244 0.09641496
000230 63 94 13 3a 4d 42 e9 3c 8e 48 91 bd 2d 6b 84 bc
       0.00056297163 0.028473997 -0.07093917 -0.016164387
000240 97 67 15 3e 9b 33 af bc bb 92 f0 bb b9 e8 0d 3c
       0.14590298 -0.021386912 -0.0073417104 0.008661442
000250 72 ff c2 3d 38 fd 4c 3d ca 5a 01 bd 85 da 55 bd
       0.095213786 0.050046176 -0.031580724 -0.05221035
000260 7f 4c 0e 3d 5e 59 43 bd 95 83 a8 bc f2 81 4b 3c
       0.03474092 -0.04769265 -0.020570556 0.012421118
000270 b9 ea 1d be fd 4c aa bd 96 75 ea 3d f2 d1 af 3d
       -0.15421571 -0.083154656 0.11448209 0.08584966
000280 6f 6c 45 3d 99 7b e0 bd 3f ed cd b9 61 c7 57 3d
       0.048199113 -0.109610744 -0.0003927741 0.052680377
000290 54 41 fc 3d de cc 33 3e 47 de 9d 3c 99 a6 49 3d
       0.12317148 0.1755862 0.01927103 0.049231146
0002a0 ef 92 82 3d 3a a8 a3 bd 08 d1 e9 bd ad 4c 09 3d
       0.063756816 -0.07991071 -0.11416823 0.03352039
0002b0 37 94 6b 3d 0d f6 a8 3d 18 d7 90 3d 75 13 1c 3e
       0.057514396 0.082500555 0.07072276 0.15241797
0002c0 9f b2 25 3d 7c 68 d8 bd b6 7c 04 be e9 06 f0 b9
       0.04045355 -0.10566804 -0.12938198 -0.00045781516
0002d0 cd 4b c8 3d 6e a4 a8 bc a6 7d 12 3d e6 bc ae bd
       0.09780083 -0.020586219 0.03576436 -0.08532123
0002e0 99 b4 af 3d 8b 6b ee 3d a8 fe b2 bd f6 61 9e 3d
       0.08579368 0.11641606 -0.08739978 0.07733528
0002f0 0e 2a 8b 3d ac be 1e be 19 77 1b 3e bc b3 27 3e
       0.06795131 -0.15502423 0.15182151 0.16377157
000300 ab 3a 0c 3e 37 12 4d bd 43 64 a1 3d 93 d5 4b 3d
       0.13694255 -0.0500662 0.078804515 0.049764227
000310 8b fa f9 3d 96 3a 92 bd 5a ff 6a 3d 28 fd 28 3e
       0.122059904 -0.07140081 0.05737243 0.16502821

heat_source_net.linear_layers.2.weight f4 [200, 200]
000000 11 3c e7 3c 7d a6 0d 3d 31 b0 20 3e 23 07 53 3d
       0.028226884 0.034582604 0.15692212 0.051520478
000010 37 31 f0 bd 85 d0 06 be a5 ca a6 bd 23 76 f6 bd
       -0.11728137 -0.13165481 -0.0814412 -0.120342515
000020 d4 c9 a3 bb ee ef 9e 3d 41 80 96 3c f0 e7 b2 3d
       -0.004998425 0.07760607 0.018371703 0.08735645
000030 fe ae 87 be 59 b9 0b 3e 42 c4 70 bd 18 21 7c 3b
       -0.26500696 0.13644923 -0.058780916 0.0038471874
000040 8c 25 0a bb 55 70 b3 3e c0 6f 23 3e 08 27 d8 3d
       -0.0021079509 0.3504664 0.15960598 0.105543196
000050 18 3b 6c 3d 2b ff 8b 3c 37 66 87 bd ce 1b 53 bb
       0.057673544 0.017089447 -0.06611293 -0.0032212618
000060 3f e6 2f bd c2 55 06 3d 72 e6 2e be 06 77 0c be
       -0.04294419 0.03279663 -0.17080095 -0.13717279
000070 a5 4a 64 3d 4b e6 ae 3d 5e c1 28 bd dd 41 71 be
       0.05573525 0.08540019 -0.041200034 -0.23560281
000080 6e 13 3d be 93 c7 6c bd 7f 4d ec 3d 92 c7 45 bd
       -0.18464443 -0.057807516 0.11538219 -0.04828603
000090 89 ef 1e bb bb c9 6c 3c 40 4f 8f 3d f7 68 ad 3c
       -0.002425166 0.014452393 0.069975376 0.021168215
0000a0 37 d7 8b 3d 14 dc 38 be 26 c7 01 be de 68 7e bb
       0.06828158 -0.18052703 -0.12673625 -0.003881983
0000b0 ec 72 f5 3d df 50 5f 3d 09 de 27 3d 73 a7 a5 3d
       0.1198481 0.054520484 0.040983234 0.08088579
0000c0 b7 c0 e9 bd 26 19 dc 3d a2 1f 1e 3e 4e e7 26 3b
       -0.114137106 0.10746984 0.15441754 0.0025467458
0000d0 da 91 2c 3c a3 bb 19 be ce a8 ee bd 47 bb 68 3d
       0.010532821 -0.15012984 -0.11653291 0.056819227
0000e0 b9 bc 9c 3c a1 9e 04 bd 6e 1a e9 3c 51 fc 4b bb
       0.019132959 -0.032377843 0.028454985 -0.0031125734
0000f0 67 1d 28 bd aa a7 15 bd 2b 0d 43 bd 02 34 3e bb
       -0.041043665 -0.03653685 -0.04761998 -0.0029022698
000100 4e 9d 99 3d 03 ed 38 3b 76 ec 10 3b 7c 0d 2c 3d
       0.075007066 0.0028217442 0.0022113598 0.042005047
000110 af 83 76 bd 9d 08 09 bc 19 66 79 bd 09 3f a0 3e
       -0.060184177 -0.00836387 -0.060888384 0.31298092
000120 e5 c3 c9 3c 19 e5 27 3e 17 0f ef 3d 08 53 aa bd
       0.024629543 0.16395988 0.116728 -0.08316618
000130 f9 7f a6 3c 34 35 63 3d e9 fd 3b be 86 0b 38 be
       0.020324694 0.05547066 -0.18358578 -0.17973146
000140 7e 0b 2b 3e 76 aa fd bc b4 a6 5e bd 72 6a df bc
       0.16703603 -0.030965071 -0.0543582 -0.027272437
000150 11 40 43 be d5 05 12 bc 67 ba 80 3c bf b3 12 3e
       -0.19067408 -0.008912523 0.015713884 0.1432638
000160 08 8d f9 3e 21 a7 1b 3c a7 d9 ad bb f6 82 a9 3d
       0.4874041 0.009500296 -0.005305487 0.08276932
000170 eb bd 18 3d 95 51 3b 3e d0 74 ba 3d 6c 80 24 be
       0.037290495 0.1829284 0.091043115 -0.16064614
000180 99 4f a6 bd b7 6e 96 bd 33 d6 32 3d b8 d3 3c bd
       -0.08120651 -0.07345336 0.043661308 -0.04610035
000190 78 14 d3 3d 33 fb 9f 3d 95 5c d5 3d 69 78 74 bd
       0.103066385 0.07811584 0.10418049 -0.059685145
0001a0 18 34 c6 3c 2b 6d 80 ba 47 67 20 3d 99 4e 7e 3c
       0.024194762 -0.000979816 0.039160993 0.015521669
0001b0 15 b0 0b 3d 85 de b4 bd e5 fa 3a 3d fa 2a aa bc
       0.03410347 -0.08831505 0.045649428 -0.020772446
0001c0 cb c2 ab bd 5f 9b e7 3c ed 8a e3 3d 87 d1 01 3e
       -0.08386763 0.028272329 0.11110482 0.12677585
0001d0 ea 41 54 bb 04 ff d5 bd a0 e8 b6 bd 00 a8 37 bc
       -0.003238792 -0.10449031 -0.089310884 -0.011209488
0001e0 f9 22 ea 3b 6c d5 26 3d c4 6d b1 3b 30 1f 4a be
       0.0071452823 0.04073088 0.0054146964 -0.1973846
0001f0 54 7b 11 bd 00 ea 86 3c 13 6f 47 be cf 9d 9c bd
       -0.035518005 0.016469002 -0.19475965 -0.07647287
000200 b1 1a ef 3c 23 ea 80 bd 3a 24 7d 3d 78 36 10 bd
       0.029187532 -0.06294658 0.061802126 -0.035208195
000210 54 fa 18 be 37 33 50 3c 8e 4d 8a 3d cb c1 3e bc
       -0.14939243 0.012707523 0.06753074 -0.0116428835
000220 e0 99 11 3e 3c 53 16 3e bb 6b 3e 3e ae 93 2f bd
       0.14218855 0.14680189 0.18595783 -0.042865448
000230 27 6d 59 3d df ed a4 3d ff 7c 7e bc 80 36 1e be
       0.05308261 0.08053183 -0.015532731 -0.15450478
000240 8a b1 0d be d7 26 9a bd 18 6c 32 3d 11 87 ca 3c
       -0.13837257 -0.07526939 0.043560117 0.024722608
000250 c8 ba 9a be 02 98 b6 3d 88 3b 89 3d a4 46 c6 3d
       -0.30220628 0.08915712 0.06700808 0.096814424
000260 4f 82 ba 3d 51 bf 5b bd 2c 0a aa ba 7a b4 6e be
       0.09106886 -0.05364925 -0.0012973002 -0.23311034
000270 5a fc 3d be 68 fd 91 bd 80 27 a0 bd 49 62 e8 3c
       -0.18553296 -0.071284115 -0.07820034 0.028367179
000280 e7 5b be 3d e9 51 d4 3c 51 c6 1c 3e 5d e8 72 3c
       0.09294873 0.025917964 0.15310027 0.014825908
000290 46 bd 10 3c c6 b7 f1 bd 98 55 32 be 6f 83 54 3d
       0.008834189 -0.1180263 -0.17415464 0.051883157
0002a0 1c 61 a7 3c d8 1f a7 bb f5 f1 31 bd ff 80 c4 bc
       0.020432048 -0.0051002316 -0.04344364 -0.023987291
0002b0 fc 91 ce bd a9 d5 b6 bd b7 b9 93 3c bf e0 5e bc
       -0.10086438 -0.08927471 0.018032892 -0.013603388
0002c0 1a 55 91 3d f6 6f d3 3c 40 df 1c bd e6 6a 8a bd
       0.0709631 0.025810223 -0.038298845 -0.067586705
0002d0 84 ec 56 3e 01 6d 68 bd 7d 20 09 3d 97 ef d4 3d
       0.20988661 -0.05674458 0.03347825 0.10397261
0002e0 ac 49 5c 3b 3e 24 94 3c 35 a2 8c bb 0a 9b 91 3b
       0.0033613248 0.018083688 -0.0042917975 0.004443531
0002f0 23 8b 43 be 21 62 2b 3d 0f 20 45 be 44 eb 1f 3e
       -0.19096045 0.04184163 -0.1925051 0.1561709
000300 4f 58 0f be 8a ab 8f 3d de 56 e9 b8 a2 2f 34 3d
       -0.13998531 0.0701514 -0.00011126486 0.04399074
000310 af 99 8c bd ea 63 5d 3d 5c c2 40 3c 16 7c 12 be
       -0.0686525 0.054050364 0.011765089 -0.14305148
000320 4a 6c ef bd d5 3b c1 3d e8 8b ca 3c 90 15 63 bd
       -0.116905764 0.0943524 0.024724916 -0.055440485
000330 2f ee 45 3d e3 0f 81 3e c6 02 4c 3d 37 26 f6 3c
       0.048322853 0.25207433 0.049807332 0.03004752
000340 5e 73 28 bd 98 3a 0d 3e ce 77 41 be 89 01 b1 be
       -0.041125648 0.13791883 -0.18893358 -0.34571484
000350 ec 18 bb bd 53 b7 17 3e 4f fa ca 3d 28 ef b3 be
       -0.09135613 0.14816026 0.09911024 -0.351434
000360 9b ae 77 3e 85 28 d0 3d a8 36 0f 3a 48 4f 57 3e
       0.241877 0.101639785 0.00054631615 0.21026337
000370 25 c3 e7 bd b4 ac bd 3d 8e ef 39 be 49 19 1a bb
       -0.11316518 0.09261456 -0.18157789 -0.0023513606
000380 cf 39 88 be 05 9f 76 be f8 0f 2d 3e 61 d2 ae 3d
       -0.26606604 -0.24084099 0.16900623 0.0853622
000390 fd e0 1a bc a1 b9 1c 3e 4e f4 69 be 60 44 ac 3d
       -0.009453055 0.15305187 -0.22847101 0.08411479
0003a0 07 42 c8 3b 55 67 63 be 84 4e 90 3e 4b 6b a7 bd
       0.0061113867 -0.22207387 0.28184903 -0.081747614
0003b0 ef 44 6a 3e bc be 38 bd 49 9d 7f 3e f7 c2 2a 3e
       0.22877859 -0.045103773 0.24962343 0.16675936
0003c0 ec de a9 3c c7 9f 34 be 90 a2 9a 3c d6 09 ef 3e
       0.02073618 -0.17639075 0.018876344 0.46687192
0003d0 1e a5 b7 bc ad 82 60 be 47 30 f9 bb 4e 8d c7 be
       -0.022417601 -0.21924849 -0.007604632 -0.38974994
0003e0 15 18 07 bf dc b6 85 bc ab b5 d5 3c e7 b7 b3 be
       -0.5277112 -0.016322546 0.026087603 -0.35101244
0003f0 c5 2a 3d bc 5c ab 62 3d 5a 6a ab bd ea e6 b9 bd
       -0.011545842 0.055339202 -0.08369894 -0.090772465

heat_source_net.linear_layers.2.bias f4 [200]
000000 99 6b b5 bb ff bd c2 3d b1 d0 cb 3d 2d 51 58 bc
       -0.0055365083 0.09508895 0.09951914 -0.013202948
000010 8e 65 fc bd b5 2b 19 3d f2 49 fa 3b ec 33 a9 3c
       -0.123240575 0.037395198 0.0076382095 0.020654641
000020 24 e9 b9 3c 14 f0 f8 3c 3b 07 46 3c ee 6c be bc
       0.022694178 0.030387916 0.012086685 -0.023245301
000030 66 d5 17 3c 83 90 e5 3d 7e 8e 13 3d 56 b9 98 bd
       0.009267187 0.11209204 0.036024563 -0.07457225
000040 8c 60 49 bc 37 99 36 bd a0 28 13 bd 1f 76 97 bc
       -0.012291085 -0.04457971 -0.035927415 -0.018488942
000050 f8 e3 f1 bc f6 53 d6 3c c1 d1 9d bd 29 34 bd 3c
       -0.02952765 0.026163083 -0.07706023 0.023096161
000060 48 20 7c b9 4e 22 6c bc 60 a0 31 bd a0 64 35 bd
       -0.00024044618 -0.014412476 -0.043365836 -0.044285417
000070 4e 88 d9 3c d9 c3 08 bd 20 02 04 3d 85 fa b6 bd
       0.026554253 -0.0333899 0.03222859 -0.089345016
000080 6e cd 26 bc 96 01 91 3c 0e 18 18 bd eb 14 71 bb
       -0.010180814 0.017700952 -0.037132315 -0.003678615
000090 d6 22 a7 3c bd fd a4 bc 09 58 6d bd bd c4 bb 3c
       0.020402353 -0.020140523 -0.057945285 0.02292096
0000a0 f7 1a 72 bb b0 6e 82 bd a8 69 e8 3b a0 47 41 3c
       -0.0036942342 -0.06368768 0.0070926733 0.011796862
0000b0 1b 40 2b 3d a4 ef 9f bd 4e 7e 8c 39 a1 08 90 ba
       0.041809183 -0.0780938 0.00026796985 -0.00109889
0000c0 1e dc 4a 3d 89 86 a1 3d 9e b0 5c 3c 41 4d 68 bc
       0.049526326 0.07886989 0.013469843 -0.014178575
0000d0 f8 bf 25 3d a4 ce 8c bc c0 a4 b9 3b 38 97 30 3d
       0.04046628 -0.017188378 0.0056653917 0.043112963
0000e0 54 e9 dd bd 43 d9 3a bd 0e c6 02 3d 4c 34 5e bc
       -0.108355194 -0.045617353 0.03192716 -0.013562273
0000f0 74 0d d6 bc 45 4a fe 3b c5 4b 10 3d c6 3b b0 3c
       -0.026129462 0.0077603185 0.03522851 0.021512877
000100 6c 7b 0b 3d c7 cb 92 bb b2 bd 0b 3c 13 bb a9 bc
       0.03405325 -0.0044798586 0.008529114 -0.020719087
000110 b0 83 70 bb 07 8a 1c 3c 8e 4c c1 3a e9 da 9e 3b
       -0.0036699586 0.009554393 0.0014747547 0.0048478735
000120 77 68 c5 3a e6 65 43 bd f0 06 7d 3c 21 45 18 bd
       0.001506104 -0.0477046 0.015443549 -0.0371753
000130 c3 62 90 bc 6b f4 93 bc 95 02 84 bc ad 14 fb 3c
       -0.017625218 -0.018060884 -0.016114512 0.030649507
000140 06 fc 68 bb 7c 36 45 bb 5f 9f 97 3b 39 c5 f3 3c
       -0.0035550608 -0.003009229 0.004627153 0.029757129
000150 ef 99 6a 3d 68 77 97 3c 24 76 4f 3d 8c a4 a0 3c
       0.05727571 0.018489555 0.050649777 0.019609712
000160 5a 35 c1 3c 2f b1 32 bc 41 37 3d bd 2e 0a d6 3c
       0.02358501 -0.010906502 -0.046195272 0.0261279
000170 ac 2a 83 3b e0 19 66 bc 84 da e5 3c 6d bb c5 bc
       0.0040028896 -0.014044255 0.028058298 -0.024137223
000180 21 d8 9c bc bb 51 53 3d ef bc 53 bc 63 1a ae bd
       -0.019146027 0.051591616 -0.012923463 -0.085011266
000190 aa 2b 10 3b 69 c9 12 bd 4c 10 49 bd 31 e3 3a 3c
       0.0021998682 -0.03583661 -0.049087808 0.011406706
0001a0 d2 d2 03 bd 06 bb f5 bb 9c e6 b1 3c 31 c7 96 bc
       -0.032183476 -0.0074991016 0.021716408 -0.018405529
0001b0 e6 54 21 3d 5d 00 e6 3c 93 6d ba 3d 36 59 6e 3c
       0.039387606 0.028076345 0.09102931 0.014547637
0001c0 4c 97 6d 3d 12 4b c3 3a 73 54 aa bc fa ef ba 3c
       0.058005616 0.0014899692 -0.020792222 0.022819508
0001d0 2e c6 e6 bb 75 58 22 bc 99 6f af bd 47 2c 82 bd
       -0.007042668 -0.009908785 -0.085662074 -0.063561015
0001e0 0e d4 87 3c 8b 06 1b 3d d9 8c d3 bd a8 22 1d bc
       0.016580608 0.037848037 -0.10329599 -0.009590782
0001f0 00 39 4a 3d 77 2c 2e bd 62 86 da bd 37 f5 32 bc
       0.049370766 -0.042522874 -0.10670163 -0.010922722
000200 27 c2 17 3a 3d 96 71 3c e1 05 98 bd 14 da d3 3c
       0.0005789124 0.014745292 -0.07422996 0.025860824
000210 40 8e 8a bc ce 83 08 3c 2b fa ab 3c 81 a1 24 bd
       -0.016913533 0.008332206 0.020993313 -0.040193085
000220 04 53 68 bd e5 fb 2c 3d 93 1a cc 3c 23 6d f6 3a
       -0.056719795 0.042232413 0.024915015 0.0018800836
000230 6d ec 13 bd 95 1e 93 bc e0 4f 4e bc 02 51 e3 bd
       -0.036114145 -0.017958919 -0.012592286 -0.110994354
000240 9d 25 83 bd 8b 9c e3 3d 66 97 2d bd 47 64 e9 3d
       -0.064036585 0.111138426 -0.042380713 0.113960795
000250 3b 6f 12 bd 74 33 96 3c 0f 9a 9e bc bf 79 e2 3c
       -0.03575061 0.018335082 -0.01936057 0.027645944
000260 68 3c 35 3d a7 df 7f bc 6b 15 c2 3c 1b 5c 8e bb
       0.04424706 -0.015617288 0.023691854 -0.004344476
000270 fe aa 68 3b ae 41 23 3d 74 ff 9f bd 4a 88 e1 3c
       0.003550231 0.03985756 -0.07812396 0.027530808
000280 79 4f 2e 3d 60 d7 da ba 73 5e 40 3b 01 ee 8f bc
       0.04255626 -0.0016696267 0.002935317 -0.017569544
000290 31 1d e4 bb f2 48 c3 3c ff e7 bc bd fe ad e3 3d
       -0.0069614877 0.023838494 -0.09223937 0.11117171
0002a0 9b f0 d1 3b ef 08 dc bb bd 1f b4 bc 65 a7 3d 3a
       0.0064068562 -0.006714932 -0.02198779 0.00072347216
0002b0 a4 44 a2 bb ab 7a 11 3c b0 12 33 3d 01 12 a8 3a
       -0.0049520303 0.008879344 0.043718994 0.0012822748
0002c0 c3 62 17 3c 2a 82 05 bc 93 e2 89 bc 7f e5 dd 3c
       0.009239855 -0.008148709 -0.016831672 0.027086971
0002d0 ed b1 01 3c e7 e1 da 3b 42 f5 55 bc c7 6a a5 3b
       0.007915956 0.0066797617 -0.013058962 0.0050481292
0002e0 5b 84 6b bb e3 7a 7d bc 8f 4d a0 3c eb 21 5e bd
       -0.0035937044 -0.015471193 0.019568233 -0.054231565
0002f0 0d 89 55 bc 73 26 43 3d f9 3d 71 3b e2 a9 29 3b
       -0.013033164 0.04764409 0.003681062 0.0025888612
000300 67 55 96 3b 7f b5 3a 3d 4f 76 c6 3d 2b 8c f8 bc
       0.0045878175 0.045583244 0.09690534 -0.030340275
000310 37 af eb 3d bc 91 b0 bc f8 19 c8 3c 49 38 65 3d
       0.11508029 -0.021553867 0.024426445 0.05596188

heat_source_net.linear_layers.3.weight f4 [200, 200]
000000 1b 42 02 3c 13 e3 b5 3e 81 a0 3c be 0d f0 ad 3d
       0.007950331 0.35524806 -0.18420602 0.08493052
000010 53 8d 3b 3b df 7e 5f bd 55 16 0b 3d 3a 7d 6e 3d
       0.0028618171 -0.054564353 0.033956844 0.058224894
000020 3a ec 0c bd 39 f4 8e bd ea 85 d3 3d bb 67 f1 3c
       -0.03440497 -0.069801755 0.103282765 0.029468408
000030 4c 51 38 3d c8 c2 76 bd d1 32 3b 3e ba b2 9c 3d
       0.044999406 -0.06024435 0.18281104 0.07651277
000040 b3 3e a8 bd b0 b8 00 3e b7 b0 30 3d bf 30 be 3d
       -0.08215084 0.12570453 0.04313728 0.09286641
000050 50 ad 02 3e 48 50 5c bd 69 13 bc ba 4d 91 ae bd
       0.12761426 -0.0537875 -0.0014349046 -0.08523808
000060 da 08 81 bc 0e 15 19 3e 56 b8 f4 3d 31 ad 25 bd
       -0.015751291 0.14949438 0.11949222 -0.04044837
000070 3a 36 15 3e f1 81 2d be ca 49 00 be ce f2 1f be
       0.14571467 -0.169441 -0.12528148 -0.15619966
000080 ec 46 83 3d d8 6c b5 3d 59 38 cd bd 81 01 59 3d
       0.06410012 0.08858651 -0.10020513 0.05297995
000090 c9 c3 c7 bb 6c 7f 17 be f8 cb b6 bd 3d af ae 3d
       -0.0060963375 -0.14794701 -0.08925623 0.08529518
0000a0 9f 44 a0 3d 58 85 af bd d0 72 2e 3c f1 d4 0a be
       0.078255884 -0.08570355 0.010647491 -0.13557793
0000b0 90 85 2d be e0 2a 4a bd 14 4b 63 bd e2 1c 51 be
       -0.16945481 -0.049357295 -0.055491522 -0.20421174
0000c0 4d 43 d6 bd 59 5f bc bd f5 5c 3e bc 6c 05 ce bd
       -0.10462055 -0.091978736 -0.011618842 -0.10059628
0000d0 d3 4d 19 bd 99 74 3b bd 0f b1 ac 3c a5 d4 a0 bd
       -0.037427735 -0.045765493 0.021080522 -0.07853059
0000e0 92 6b a8 bd 75 b9 c6 3d 0c bb 8e bd e1 37 8f 3d
       -0.082236424 0.09703342 -0.0696927 0.0699308
0000f0 79 91 13 be 92 5c c1 3c b4 ed ae 3d 3e 9f 57 bd
       -0.14410962 0.023603711 0.08541432 -0.0526421
000100 f4 fc 34 3c 41 a9 bb 3c cc 16 e0 3d 60 a5 b8 be
       0.011046637 0.022907855 0.10941848 -0.3606367
000110 75 91 27 3d 4c 00 ba 3d c7 a8 82 3c 5b 5b 01 bd
       0.040910203 0.09082088 0.01594962 -0.031581264
000120 da 89 25 3d ba 01 9b 3d f9 58 93 bc 96 5c 17 be
       0.04041467 0.07568689 -0.017986761 -0.14781412
000130 bf a1 b1 bd 81 af 43 bb a8 40 14 3b dd 9a dc 3d
       -0.08673429 -0.0029859247 0.0022621546 0.10771725
000140 7c 38 d2 bd 39 ca 3a 3d 93 19 b5 bd 53 f2 90 3b
       -0.1026468 0.04560301 -0.088427685 0.0044234185
000150 99 89 80 3c 2b 51 8b bc 51 1d 55 3e 99 08 0b 3d
       0.015690612 -0.017006477 0.20811965 0.033943746
000160 6b 18 a9 3d d1 28 44 3e 7b 40 d2 bb cf ab 6a bd
       0.082566105 0.19156195 -0.006416378 -0.057292756
000170 be f6 f0 3c f2 bd 8a bd 38 78 bd bd 24 c6 c1 3d
       0.02941453 -0.067745104 -0.092514455 0.094616205
000180 1d 06 73 bd ad 94 c9 bd a8 56 77 3d 2a 69 ba bc
       -0.059332002 -0.09842811 0.060385376 -0.022755224
000190 f1 99 d4 bd 0b 23 9a be 4a 78 e9 3d 31 95 8a bd
       -0.103809245 -0.3010486 0.113998964 -0.06766737
0001a0 fc d9 3c bd 8d db 62 bb ee 13 a8 bc 59 8f 3c bd
       -0.046106324 -0.0034615726 -0.020517316 -0.046035144
0001b0 3a 43 1e be 80 f5 2a 3e 3e ec 0e bd 95 bb d3 3d
       -0.15455332 0.16695213 -0.034893267 0.10338513
0001c0 87 ab a7 3c 8b c6 6d bd 39 0a 3e bd ab 4c 20 3d
       0.020467533 -0.058050673 -0.046396468 0.039135616
0001d0 62 81 64 3d 9f aa 17 be 93 35 b1 bd d5 90 78 bd
       0.05578745 -0.1481118 -0.086527966 -0.060684998
0001e0 eb 63 d6 bc ab 30 8e bc ba 54 27 3d 9e c5 68 3d
       -0.026170691 -0.017357191 0.040852286 0.056829087
0001f0 6d 72 8f 3d 6a 85 e7 3d f2 e1 dc bc 41 52 51 3e
       0.07004247 0.113047436 -0.026963208 0.20441534
000200 52 72 07 3d 17 ea 20 be 09 66 d1 3d 49 85 91 bc
       0.03306801 -0.15714298 0.1022454 -0.01776375
000210 06 dd 7e 3d 65 d7 51 be e1 17 fe 3d 43 6c bb 3c
       0.062222503 -0.20492323 0.12406898 0.022878772
000220 88 ad b9 bd c4 51 7d 3d cf 41 87 bd fe c1 00 3e
       -0.090663016 0.061845556 -0.06604349 0.12574002
000230 97 ac 6d bd 8e 6d be 3c 16 42 91 bd 3a ed db bd
       -0.058025923 0.0232456 -0.07092683 -0.10738607
000240 13 e0 2c 3e 1f 1d 09 3e 0c ad 9c 3d 12 1c 00 3d
       0.16882353 0.13390015 0.076501936 0.03127677
000250 c2 a9 53 3c 67 07 17 bd 33 d9 06 3e 24 94 23 3d
       0.012918891 -0.036872294 0.13168792 0.0399362
000260 af 70 df 3d 41 de ed bb aa 0e 74 be cf aa 50 3d
       0.109101646 -0.0072591607 -0.23833719 0.050944146
000270 06 ed 1e be 7a 6d e3 bc 36 4e 87 be d0 23 b4 3d
       -0.15520105 -0.027762163 -0.26426858 0.08795893
000280 27 9d 08 bd ea ee dc bc 30 31 86 bc 9c a8 b5 bd
       -0.033352997 -0.026969392 -0.016380876 -0.0887005
000290 13 28 e1 bd 98 c2 e9 bc d9 6b 47 bb cf d2 8c 3d
       -0.10993972 -0.028535172 -0.0030429272 0.06876146
0002a0 97 40 83 bc 65 44 bc bd 5f 2f 1a 3d 12 e0 c4 bd
       -0.01602201 -0.09192733 0.037642833 -0.096130505
0002b0 13 d0 1b bd 72 5d 8c bd 8a 4a 89 3d 94 94 b1 bd
       -0.038040232 -0.06853761 0.0670367 -0.08670917
0002c0 95 c4 69 3d 7d 12 10 3d 48 6f 94 3d 79 5f 77 bd
       0.05707224 0.03517388 0.07247788 -0.060393784
0002d0 a8 f2 ae 3d 4b 05 f5 3d c5 ef a2 bd c2 6d eb 3c
       0.08542377 0.119639 -0.07955889 0.02873886
0002e0 e7 3d b2 be ed b5 90 3d da ec 1f 3d 06 15 22 be
       -0.34812853 0.070659496 0.03904424 -0.15828332
0002f0 a9 61 72 3d 62 78 79 bd 90 d0 cf bd e5 c0 71 bd
       0.059175167 -0.06090582 -0.10147202 -0.05902185
000300 d3 fd 26 3e 69 9f ce bd aa ad 79 bc 20 a9 db bd
       0.16307764 -0.10088999 -0.015239159 -0.107256174
000310 69 ff 29 3e fb 1d e7 3c 5f 4f 02 3d 25 09 58 bd
       0.16601337 0.028212538 0.031813975 -0.052743096
000320 dc a4 cd 3d 8d 59 48 3d 7f c5 13 3d c0 60 98 3c
       0.1004121 0.048913527 0.03607702 0.018600821
000330 10 51 55 bd b6 76 5c 3e 9b 7f 18 be 6b aa d7 bd
       -0.05207926 0.2152966 -0.14892428 -0.105305515
000340 50 05 ed 3d 0e 77 5e 3d c4 61 c3 bc f0 e8 0e bd
       0.11573279 0.05431276 -0.02385033 -0.034890115
000350 b3 8c 27 3d d8 ec 58 3e cc 75 29 3c 07 3f 20 be
       0.040905666 0.21184099 0.010343026 -0.15649043
000360 08 35 dd 3c 8a 4e 85 bc b6 75 60 3c 31 4c 3f be
       0.027002826 -0.016272802 0.0136999395 -0.18681408
000370 b5 c3 e6 3d cd 24 24 3e e2 6a b4 3d f4 d8 14 3e
       0.11267797 0.16029663 0.08809449 0.14535886
000380 24 53 90 bd 93 b0 fe b9 94 cf 3b bd 41 b8 41 3d
       -0.07047108 -0.00048578213 -0.04585226 0.04729486
000390 30 0d 5e 3d 4b fd 06 bd 1b 67 8b bd 58 f4 31 3d
       0.054211795 -0.032956403 -0.06806775 0.043445915
0003a0 60 f8 bb bd 0a 91 84 bd 10 16 d6 bc 56 5c 9d ba
       -0.09178233 -0.064729765 -0.026133567 -0.0012005668
0003b0 4e f3 83 bb 48 e2 3f bc e2 4e d8 bd 33 99 57 3d
       -0.004026807 -0.0117116645 -0.10561921 0.052636337
0003c0 7c 96 bf bd 7f 7f 94 3c 85 a3 dd bd b3 ca ab 3a
       -0.093548745 0.018127201 -0.108222045 0.0013106674
0003d0 b9 d0 6c bd e8 76 b4 bd ae 7e d2 bd 6e 74 0f bd
       -0.05781624 -0.08811742 -0.102780685 -0.035023145
0003e0 ef a3 de 3c eb 90 b5 3d ea 48 39 3d 16 ed 06 3d
       0.027177779 0.088655315 0.045235552 0.032940947
0003f0 5d 9b 0d 3c eb 64 4f 3d 4a 6a 40 3d 51 e1 92 bd
       0.0086429985 0.050633352 0.046976365 -0.07171882
